Logs will be synced with wandb.
Architecture: TD-MPC2 World Model
Encoder: ModuleDict(
  (state): DEQ_MLP(
    (act): GELU(approximate='none')
    (input_proj): Sequential(
      (0): Linear(in_features=17, out_features=256, bias=True)
      (1): LayerNorm((256,), eps=1e-05, elementwise_affine=True)
      (2): GELU(approximate='none')
    )
    (deq_func): ImprovedDEQFunc(
      (layers): Sequential(
        (0): Linear(in_features=256, out_features=256, bias=True)
        (1): LayerNorm((256,), eps=1e-05, elementwise_affine=True)
        (2): GELU(approximate='none')
        (3): Dropout(p=0.1, inplace=False)
        (4): Linear(in_features=256, out_features=256, bias=True)
        (5): LayerNorm((256,), eps=1e-05, elementwise_affine=True)
        (6): GELU(approximate='none')
        (7): Dropout(p=0.1, inplace=False)
        (8): Linear(in_features=256, out_features=256, bias=True)
        (9): LayerNorm((256,), eps=1e-05, elementwise_affine=True)
        (10): GELU(approximate='none')
      )
    )
    (output_proj): Sequential(
      (0): Linear(in_features=256, out_features=512, bias=True)
      (1): LayerNorm((512,), eps=1e-05, elementwise_affine=True)
    )
    (skip_proj): Linear(in_features=17, out_features=512, bias=True)
    (deq): DEQSliced()
  )
)
Dynamics: Sequential(
  (0): NormedLinear(in_features=518, out_features=512, bias=True, act=Mish)
  (1): NormedLinear(in_features=512, out_features=512, bias=True, act=Mish)
  (2): NormedLinear(in_features=512, out_features=512, bias=True, act=SimNorm)
)
Reward: Sequential(
  (0): NormedLinear(in_features=518, out_features=512, bias=True, act=Mish)
  (1): NormedLinear(in_features=512, out_features=512, bias=True, act=Mish)
  (2): Linear(in_features=512, out_features=101, bias=True)
)
Policy prior: Sequential(
  (0): NormedLinear(in_features=512, out_features=512, bias=True, act=Mish)
  (1): NormedLinear(in_features=512, out_features=512, bias=True, act=Mish)
  (2): Linear(in_features=512, out_features=12, bias=True)
)
Q-functions: Vectorized 5x Sequential(
  (0): NormedLinear(in_features=518, out_features=512, bias=True, dropout=0.01, act=Mish)
  (1): NormedLinear(in_features=512, out_features=512, bias=True, act=Mish)
  (2): Linear(in_features=512, out_features=101, bias=True)
)
Learnable parameters: 5,166,955
[2025-10-19 13:07:18,261][absl][WARNING] - Nan, Inf or huge value in CTRL at ACTUATOR 0. The simulation is unstable. Time = 0.0000.
Error executing job with overrides: []
Traceback (most recent call last):
  File "/home/lug15gew/Desktop/thesis/tdmpc2-main/tdmpc2/train.py", line 69, in <module>
    train()
  File "/home/lug15gew/Desktop/thesis/.venv/lib/python3.12/site-packages/hydra/main.py", line 94, in decorated_main
…
